{"class_name": "Model", "keras_version": "2.0.4", "config": {"layers": [{"class_name": "InputLayer", "config": {"dtype": "float32", "batch_input_shape": [null, 256, 32, 1], "name": "the_input", "sparse": false}, "inbound_nodes": [], "name": "the_input"}, {"class_name": "BatchNormalization", "config": {"beta_constraint": null, "gamma_initializer": {"class_name": "Ones", "config": {}}, "moving_mean_initializer": {"class_name": "Zeros", "config": {}}, "name": "batchnorm1", "dtype": "float32", "trainable": true, "moving_variance_initializer": {"class_name": "Ones", "config": {}}, "beta_initializer": {"class_name": "Zeros", "config": {}}, "scale": true, "axis": -1, "epsilon": 0.001, "gamma_constraint": null, "batch_input_shape": [null, 256, 32, 1], "gamma_regularizer": null, "beta_regularizer": null, "momentum": 0.99, "center": true}, "inbound_nodes": [[["the_input", 0, 0, {}]]], "name": "batchnorm1"}, {"class_name": "Conv2D", "config": {"kernel_initializer": {"class_name": "VarianceScaling", "config": {"distribution": "uniform", "scale": 1.0, "seed": null, "mode": "fan_avg"}}, "name": "conv1", "kernel_constraint": null, "bias_regularizer": null, "bias_constraint": null, "dtype": "float32", "activation": "linear", "trainable": true, "data_format": "channels_last", "filters": 8, "padding": "same", "strides": [1, 1], "dilation_rate": [1, 1], "kernel_regularizer": null, "bias_initializer": {"class_name": "Zeros", "config": {}}, "batch_input_shape": [null, 256, 32, 1], "use_bias": true, "activity_regularizer": null, "kernel_size": [3, 3]}, "inbound_nodes": [[["batchnorm1", 0, 0, {}]]], "name": "conv1"}, {"class_name": "MaxPooling2D", "config": {"name": "max1", "trainable": true, "data_format": "channels_last", "pool_size": [2, 2], "padding": "valid", "strides": [2, 2]}, "inbound_nodes": [[["conv1", 0, 0, {}]]], "name": "max1"}, {"class_name": "BatchNormalization", "config": {"beta_constraint": null, "gamma_initializer": {"class_name": "Ones", "config": {}}, "moving_mean_initializer": {"class_name": "Zeros", "config": {}}, "name": "batchnorm2", "dtype": "float32", "trainable": true, "moving_variance_initializer": {"class_name": "Ones", "config": {}}, "beta_initializer": {"class_name": "Zeros", "config": {}}, "scale": true, "axis": -1, "epsilon": 0.001, "gamma_constraint": null, "batch_input_shape": [null, 256, 32, 1], "gamma_regularizer": null, "beta_regularizer": null, "momentum": 0.99, "center": true}, "inbound_nodes": [[["max1", 0, 0, {}]]], "name": "batchnorm2"}, {"class_name": "Conv2D", "config": {"kernel_initializer": {"class_name": "VarianceScaling", "config": {"distribution": "uniform", "scale": 1.0, "seed": null, "mode": "fan_avg"}}, "name": "conv2", "kernel_constraint": null, "bias_regularizer": null, "bias_constraint": null, "dtype": "float32", "activation": "linear", "trainable": true, "data_format": "channels_last", "filters": 16, "padding": "same", "strides": [1, 1], "dilation_rate": [1, 1], "kernel_regularizer": null, "bias_initializer": {"class_name": "Zeros", "config": {}}, "batch_input_shape": [null, 256, 32, 1], "use_bias": true, "activity_regularizer": null, "kernel_size": [3, 3]}, "inbound_nodes": [[["batchnorm2", 0, 0, {}]]], "name": "conv2"}, {"class_name": "MaxPooling2D", "config": {"name": "max2", "trainable": true, "data_format": "channels_last", "pool_size": [2, 2], "padding": "valid", "strides": [2, 2]}, "inbound_nodes": [[["conv2", 0, 0, {}]]], "name": "max2"}, {"class_name": "Reshape", "config": {"target_shape": [64, 128], "trainable": true, "name": "reshape"}, "inbound_nodes": [[["max2", 0, 0, {}]]], "name": "reshape"}, {"class_name": "Dropout", "config": {"rate": 0.25, "trainable": true, "name": "dropout"}, "inbound_nodes": [[["reshape", 0, 0, {}]]], "name": "dropout"}, {"class_name": "GRU", "config": {"recurrent_activation": "hard_sigmoid", "trainable": true, "recurrent_initializer": {"class_name": "Orthogonal", "config": {"seed": null, "gain": 1.0}}, "use_bias": true, "bias_regularizer": null, "implementation": 0, "unroll": false, "activation": "tanh", "bias_initializer": {"class_name": "Zeros", "config": {}}, "units": 512, "activity_regularizer": null, "recurrent_dropout": 0.0, "kernel_initializer": {"class_name": "VarianceScaling", "config": {"distribution": "normal", "scale": 2.0, "seed": null, "mode": "fan_in"}}, "kernel_constraint": null, "dropout": 0.0, "stateful": false, "recurrent_regularizer": null, "name": "gru1", "bias_constraint": null, "go_backwards": false, "kernel_regularizer": null, "return_sequences": true, "recurrent_constraint": null}, "inbound_nodes": [[["dropout", 0, 0, {}]]], "name": "gru1"}, {"class_name": "Dropout", "config": {"rate": 0.25, "trainable": true, "name": "gru_dropout"}, "inbound_nodes": [[["gru1", 0, 0, {}]]], "name": "gru_dropout"}, {"class_name": "GRU", "config": {"recurrent_activation": "hard_sigmoid", "trainable": true, "recurrent_initializer": {"class_name": "Orthogonal", "config": {"seed": null, "gain": 1.0}}, "use_bias": true, "bias_regularizer": null, "implementation": 0, "unroll": false, "activation": "tanh", "bias_initializer": {"class_name": "Zeros", "config": {}}, "units": 512, "activity_regularizer": null, "recurrent_dropout": 0.0, "kernel_initializer": {"class_name": "VarianceScaling", "config": {"distribution": "normal", "scale": 2.0, "seed": null, "mode": "fan_in"}}, "kernel_constraint": null, "dropout": 0.0, "stateful": false, "recurrent_regularizer": null, "name": "gru2", "bias_constraint": null, "go_backwards": false, "kernel_regularizer": null, "return_sequences": true, "recurrent_constraint": null}, "inbound_nodes": [[["gru_dropout", 0, 0, {}]]], "name": "gru2"}, {"class_name": "Dense", "config": {"kernel_initializer": {"class_name": "VarianceScaling", "config": {"distribution": "normal", "scale": 2.0, "seed": null, "mode": "fan_in"}}, "name": "dense", "kernel_constraint": null, "bias_regularizer": null, "bias_constraint": null, "activation": "linear", "trainable": true, "kernel_regularizer": null, "bias_initializer": {"class_name": "Zeros", "config": {}}, "units": 12, "use_bias": true, "activity_regularizer": null}, "inbound_nodes": [[["gru2", 0, 0, {}]]], "name": "dense"}, {"class_name": "Activation", "config": {"activation": "softmax", "trainable": true, "name": "softmax"}, "inbound_nodes": [[["dense", 0, 0, {}]]], "name": "softmax"}, {"class_name": "InputLayer", "config": {"dtype": "float32", "batch_input_shape": [null, 17], "name": "the_labels", "sparse": false}, "inbound_nodes": [], "name": "the_labels"}, {"class_name": "InputLayer", "config": {"dtype": "int64", "batch_input_shape": [null, 1], "name": "input_length", "sparse": false}, "inbound_nodes": [], "name": "input_length"}, {"class_name": "InputLayer", "config": {"dtype": "int64", "batch_input_shape": [null, 1], "name": "label_length", "sparse": false}, "inbound_nodes": [], "name": "label_length"}, {"class_name": "Lambda", "config": {"function": ["c\u0001\u0000\u0000\u0000\u0005\u0000\u0000\u0000\u0005\u0000\u0000\u0000C\u0000\u0001\u0000sM\u0000\u0000\u0000|\u0000\u0000\\\u0004\u0000}\u0001\u0000}\u0002\u0000}\u0003\u0000}\u0004\u0000|\u0001\u0000d\u0000\u0000d\u0000\u0000\u0085\u0002\u0000d\u0001\u0000d\u0000\u0000\u0085\u0002\u0000d\u0000\u0000d\u0000\u0000\u0085\u0002\u0000f\u0003\u0000\u0019}\u0001\u0000t\u0000\u0000j\u0001\u0000|\u0002\u0000|\u0001\u0000|\u0003\u0000|\u0004\u0000\u0083\u0004\u0000S(\u0002\u0000\u0000\u0000Ni\u0002\u0000\u0000\u0000(\u0002\u0000\u0000\u0000t\u0001\u0000\u0000\u0000Kt\u000e\u0000\u0000\u0000ctc_batch_cost(\u0005\u0000\u0000\u0000t\u0004\u0000\u0000\u0000argst\u0006\u0000\u0000\u0000y_predt\u0006\u0000\u0000\u0000labelst\f\u0000\u0000\u0000input_lengtht\f\u0000\u0000\u0000label_length(\u0000\u0000\u0000\u0000(\u0000\u0000\u0000\u0000s\u0013\u0000\u0000\u0000dotnum_image_ctc.pyt\u000f\u0000\u0000\u0000ctc_lambda_func\u00a8\u0000\u0000\u0000s\u0006\u0000\u0000\u0000\u0000\u0001\u0012\u0003%\u0001", null, null], "name": "ctc", "trainable": true, "function_type": "lambda", "arguments": {}, "output_shape": [1], "output_shape_type": "raw"}, "inbound_nodes": [[["softmax", 0, 0, {}], ["the_labels", 0, 0, {}], ["input_length", 0, 0, {}], ["label_length", 0, 0, {}]]], "name": "ctc"}], "input_layers": [["the_input", 0, 0], ["the_labels", 0, 0], ["input_length", 0, 0], ["label_length", 0, 0]], "output_layers": [["softmax", 0, 0], ["ctc", 0, 0]], "name": "model_2"}, "backend": "tensorflow"}